risk_artifacts/autoencoder.pt (torch, 5872 bytes, 8 tensors)

encoder.0.weight f4 [12, 22]
0.47372055 0.4723393 0.22677638 0.4420756 0.055749662 0.15348473 -0.0518435 0.21952991
0.07880296 0.012693198 0.061240904 0.19107738 0.19618447 0.091722295 0.22923641 0.023142533
0.29275978 0.19517764 0.038101643 0.15957582 0.025578398 0.12918982 -0.020211624 0.04755288
-0.3822569 -0.22935526 0.021264905 -0.034157716 0.10622469 -0.18051319 0.22137569 -0.03463024
0.1433138 0.103677556 0.056484424 0.2601991 0.13641106 0.2993928 0.1769176 0.09250825
0.16801105 0.099736765 0.25375232 0.33367783 0.13539368 -0.20359708 -0.12743227 -0.16386689
0.20278019 0.013753422 -0.11847694 -0.0963434 -0.05725489 0.31162062 0.11976407 0.20954885
0.19565588 0.18910584 0.25993165 0.015899798 0.21190035 0.058518372 0.16781971 0.13823281
0.22019911 0.12729307 0.3731089 0.22811812 0.032366555 -0.04841366 0.31936765 0.21831585
0.27151653 -0.1140236 -0.10856228 0.017212994 0.0022094261 0.37300694 0.10472594 0.023184318
0.124462776 0.008231495 0.026134288 -0.083956 0.32762083 -0.07779251 0.07518906 0.010681712
-0.10759169 0.06499988 0.04507224 -0.054357387 0.12708244 0.14493582 -0.15460747 -0.11382108
0.19521978 -0.071940854 -0.075583145 -0.20629187 -0.1220937 0.05325832 -0.02814104 -0.1547594
0.005000984 -0.14563347 -0.18087877 -0.11740167 -0.18659584 -0.135753 0.069295935 -0.25123632
0.20175874 0.08947627 -0.21751998 -0.17762285 -0.12457863 -0.28821126 -0.23339093 -0.22259697
-0.25544304 -0.18583384 -0.16750433 -0.32940218 -0.27837056 -0.25110883 0.17851244 -0.05286661
0.08374325 0.06503519 0.5471744 0.17201602 0.159643 0.53854007 -0.0112502305 -0.061339732
-0.084588744 -0.07827277 0.13047801 0.046014488 0.07165801 -0.014203501 0.095564365 -0.012376374
0.04965392 0.16603047 0.22729795 0.29830167 0.36299494 0.031703625 0.18105006 0.070000246
0.1170902 0.012752743 -0.21998347 -0.2732081 0.3620548 0.3612465 0.20680133 0.08033267
0.14419234 0.06935645 0.042958055 0.10283949 0.14369479 0.07491843 0.0839077 0.24982446
0.2974531 0.21242717 0.13928817 -0.18652692 0.20852034 -0.020860313 0.4310073 0.045310285
-0.11078412 0.044051122 0.18199387 -0.17523976 -0.018685611 0.039633438 -0.02662561 -0.1335396
0.04509804 0.03816825 0.014379891 -0.10987179 -0.12276476 -0.05317602 -0.105907276 -0.1333078
0.06491026 0.10940013 -0.089875415 -0.11585717 -0.06606464 -0.08289985 0.36141348 0.35020325
0.03641516 0.13045883 0.21391143 0.122438796 -0.06591096 -0.07227433 -0.32185474 -0.09184996
-0.2745759 0.17625874 0.07056705 0.14732386 -0.15756798 -0.08694838 0.07386732 0.33613354
0.08674608 0.02576961 0.16476592 0.03451725 0.1498526 0.37068287 -0.08735858 0.034918908
0.017599033 0.072612606 -0.024988353 0.08031536 -0.0043469802 -0.03569452 -0.02542539 0.15635343
0.17366427 0.2620336 0.25642997 0.21917966 0.068054266 -0.30609697 -0.014581865 0.076630905
0.5910946 0.005688177 -0.26086012 -0.36595038 -0.081217766 -0.11638945 -0.057099007 0.20882541
0.038208436 0.23785461 -0.020730024 -0.013854028 -0.02893079 -0.0064553525 0.059233245 -0.07857064
00000000: 808b f23e 75d6 f13e 1138 683e bc57 e23e
00000010: c259 643d 1a2b 1d3e da59 54bd 73cc 603e
00000020: 7263 a13d 22f7 4f3c bed7 7a3d caa9 433e
00000030: 95e4 483e e6d8 bb3d f3bc 6a3e 6995 bd3c
00000040: 9ce4 953e a6dc 473e 7810 1c3d d867 233e
00000050: ca89 d13c 564a 043e d992 a5bc cfc6 423d
00000060: 2db7 c3be 1bdc 6abe bd33 ae3c f6e8 0bbd
00000070: 558c d93d 73d8 38be 4fb0 623e 70d8 0dbd
00000080: dac0 123e e654 d43d 365c 673d d138 853e
00000090: 57af 0b3e 034a 993e e329 353e f774 bd3d
000000a0: 170b 2c3e ca42 cc3d d3eb 813e d2d7 aa3e
000000b0: a4a4 0a3e c17b 50be 9b7d 02be b9cc 27be
000000c0: 9ca5 4f3e 0856 613c 0aa4 f2bd b04f c5bd
000000d0: 1b84 6abd bd8c 9f3e dd46 f53d f993 563e
000000e0: 045a 483e f6a4 413e c315 853e 4b40 823c
000000f0: 68fc 583e f6b0 6f3d eed8 2b3e e78c 0d3e
00000100: e07b 613e 1d59 023e 2108 bf3e cc97 693e
00000110: cb92 043d 674d 46bd 2884 a33e 318e 5f3e
00000120: 3704 8b3e 3585 e9bd e755 debd 4402 8d3c
00000130: 05cc 103b c4fa be3e 8e7a d63d 0aed bd3c
00000140: 57e6 fe3d 64dd 063c 9317 d63c 20f1 abbd
00000150: ebbd a73e ae51 9fbd b9fc 993d 5902 2f3c
00000160: 0859 dcbd a81e 853d ab9d 383d daa5 5ebd
00000170: e621 023e 0e6a 143e 6c51 1ebe 071b e9bd
00000180: b2e7 473e ba55 93bd 56cb 9abd 2d3e 53be
00000190: 430c fabd 6525 5a3d 0a88 e6bc 4079 1ebe
000001a0: 4bdf a33b f120 15be 4938 39be 4970 f0bd
000001b0: fb12 3fbe d602 0bbe 07eb 8d3d 0ca2 80be
000001c0: d899 4e3e 563f b73d 8fbd 5ebe c4e2 35be
000001d0: 1523 ffbd 6d90 93be 08fe 6ebe 76f0 63be
000001e0: 6ec9 82be 3a4b 3ebe 4186 2bbe 67a7 a8be
000001f0: 9686 8ebe 5691 80be f7cb 363e a98a 58bd
00000200: 9581 ab3d 2b31 853d 9f13 0c3f f824 303e
00000210: 7479 233e c3dd 093f e352 38bc 5f3f 7bbd
00000220: dd3c adbd 794d a0bd 079c 053e b079 3c3d
00000230: 6fc1 923d cdb5 68bc 40b7 c33d 46c6 4abc
00000240: e961 4b3d e403 2a3e cbc0 683e ffba 983e
00000250: 79da b93e a9db 013d 3065 393e 4a5c 8f3d
00000260: fdcc ef3d e2f0 503c 5943 61be efe1 8bbe
00000270: 3f5f b93e 4df5 b83e bac3 533e 7485 a43d
00000280: 28a7 133e c10a 8e3d c9f4 2f3d 839d d23d
00000290: ba24 133e d56e 993d cdd7 ab3d fcd1 7f3e
000002a0: c64b 983e 8286 593e 8fa1 0e3e ea00 3fbe
000002b0: 5b86 553e 3fe3 aabc fdac dc3e 4797 393d
000002c0: c9e2 e2bd f36e 343d 9a5c 3a3e 0d72 33be
000002d0: 9112 99bc ac56 223d f41d dabc 9bbe 08be
000002e0: b9b8 383d 5056 1c3d a299 6b3c 7604 e1bd
000002f0: 176c fbbd 19cf 59bd eae5 d8bd d781 08be
00000300: acef 843d 2d0d e03d 9a10 b8bd 8646 edbd
00000310: e64c 87bd 66c7 a9bd 300b b93e d74d b33e
00000320: 1028 153d 0097 053e 990b 5b3e 31c1 fa3d
00000330: 53fc 86bd 9004 94bd 25ca a4be d51b bcbd
00000340: 3695 8cbe 2c7d 343e 7585 903d 11dc 163e
00000350: 8059 21be fe11 b2bd c047 973d b219 ac3e
00000360: eea7 b13d ca1a d33c 66b8 283e f661 0d3d
00000370: f672 193e 25ca bd3e 0ee9 b2bd 2107 0f3d
00000380: d92b 903c ebb5 943d 60b4 ccbc 617c a43d
00000390: 1d71 8ebb 6b34 12bd e848 d0bc 1d1b 203e
000003a0: 0cd5 313e 4529 863e ca4a 833e a270 603e
000003b0: 0960 8b3d beb8 9cbe c6e8 6ebc aaf0 9c3d
000003c0: fa51 173f e363 ba3b 758f 85be d95d bbbe
000003d0: 8055 a6bd 985d eebd a6e0 69bd 54d6 553e
000003e0: 7380 1c3d 2990 733e 03d2 a9bc 01fc 62bc
000003f0: 4400 edbc 6c87 d3bb 8f9e 723d a5e9 a0bd

encoder.0.bias f4 [12]
0.18628903 0.28715542 0.094591804 0.15130772 -0.049085323 -0.3268532 0.22106959 0.05501911
0.06264482 0.19560507 0.38858178 0.069553606
00000000: 8dc2 3e3e 0906 933e 59b9 c13d 69f0 1a3e
00000010: b10d 49bd 4d59 a7be 1160 623e b85b 613d
00000020: ed4b 803d b24c 483e 31f4 c63e 1f72 8e3d

encoder.2.weight f4 [5, 12]
-0.058195848 0.25102553 0.34811646 -0.625851 -0.06552454 0.17160077 0.16604327 0.21754174
-0.05853859 0.12533481 -0.43979415 0.43509784 0.39930493 0.0881642 0.10915069 0.12858056
-0.26069176 0.2696993 0.25379774 -0.35457543 -0.1302409 0.17309976 -0.4641393 0.038994014
0.16299774 0.05488926 0.024870684 -0.42368236 -0.23493172 1.0746439 0.0062669986 0.7162983
-0.03280437 0.18250594 0.35092098 0.25545835 -0.18840377 0.24668923 0.3682624 0.027058242
0.19353494 0.6639115 0.11018023 -0.21374255 -0.20761298 0.04578115 0.68201923 0.2163942
-0.18267044 -0.23148426 -0.1972701 -0.28488705 -0.22275299 -0.07138861 0.19482026 0.04831909
-0.21956788 -0.23158209 0.14360873 -0.21472847
00000000: c55e 6ebd 6b86 803e 523c b23e c537 20bf
00000010: bb31 86bd 1db8 2f3e 3f07 2a3e 43c3 5e3e
00000020: 29c6 6fbd c557 003e b32c e1be 25c5 de3e
00000030: b271 cc3e 6f8f b43d 668a df3d 9faa 033e
00000040: 6479 85be 0716 8a3e c7f1 813e e98a b5be
00000050: df5d 05be 1041 313e aba3 edbe 30b8 1f3d
00000060: e1e8 263e 90d3 603d 9bbd cb3c e5ec d8be
00000070: f191 70be ee8d 893f 655b cd3b 535f 373f
00000080: e05d 06bd d6e2 3a3e eaab b33e 70cb 823e
00000090: ebec 40be 1a9c 7c3e e48c bc3e 3fa9 dd3c
000000a0: 062e 463e 1bf6 293f 2ca6 e13d 54df 5abe
000000b0: 7f98 54be 0485 3b3d d098 2e3f 7196 5d3e
000000c0: f60d 3bbe 360a 6dbe 2c01 4abe b7dc 91be
000000d0: 5c19 64be 3134 92bd f67e 473e 3dea 453d
000000e0: 67d6 60be db23 6dbe 2b0e 133e c8e1 5bbe

encoder.2.bias f4 [5]
0.098386526 0.24280252 -0.018977242 -0.008554628 -0.025127577
00000000: e07e c93d 39a1 783e 2976 9bbc b628 0cbc
00000010: 59d8 cdbc

decoder.0.weight f4 [12, 5]
-0.16289365 -0.28558242 -0.46076858 -0.41028193 -0.23946573 0.56212324 -0.109090544 -0.12811278
0.2559969 0.12325668 0.373998 0.47220105 0.39515558 -0.30977544 0.039662752 0.4607722
0.07110045 -0.11082298 0.5614325 -0.16727033 -0.15653439 -0.08261735 -0.026228884 0.007993944
0.09899647 0.088436365 -0.3391612 -0.41764706 0.0078751445 0.4077846 0.25800708 -0.26038307
-0.058052145 -0.3296785 -0.21574631 0.50972897 0.5757266 0.6413948 -0.7584169 0.29901382
-0.24374656 0.27146706 0.46077445 0.03985287 0.40687895 -0.14845112 -0.4332351 0.74402803
0.047337726 -0.091544725 -0.08374657 0.4719657 0.3312774 0.3164826 -0.2513178 -0.30681366
0.22007501 0.26667422 -0.025060326 -0.12512933
00000000: 98cd 26be dc37 92be dce9 ebbe 7910 d2be
00000010: 8136 75be 4fe7 0f3f dd6a dfbd ff2f 03be
00000020: 0712 833e 006e fc3d aa7c bf3e 56c4 f13e
00000030: d551 ca3e e39a 9ebe 6975 223d 55ea eb3e
00000040: 1d9d 913d 29f7 e2bd 0aba 0f3f ea48 2bbe
00000050: 8d4a 20be 4933 a9bd f5dd d6bc 08f9 023c
00000060: a9be ca3d 201e b53d 89a6 adbe d6d5 d5be
00000070: c006 013c 25c9 d03e 8119 843e ee50 85be
00000080: 16c8 6dbd 9fcb a8be 9aec 5cbe 997d 023f
00000090: d262 133f 7332 243f 9c27 42bf 5718 993e
000000a0: b398 79be bbfd 8a3e a1ea eb3e c33c 233d
000000b0: 7052 d03e 9203 18be fed0 ddbe 9f78 3e3f
000000c0: 34e5 413d cd7b bbbd 5283 abbd 7da5 f13e
000000d0: 319d a93e 020a a23e baac 80be ae16 9dbe
000000e0: 585b 613e 8689 883e 504b cdbc e721 00be

decoder.0.bias f4 [12]
0.259305 0.12116563 0.105222076 0.012773505 0.9718022 -0.4204959 -0.21377483 0.17279655
0.22846526 0.050460536 -0.08844618 0.53501695
00000000: a0c3 843e b025 f83d ac7e d73d f747 513c
00000010: 07c8 783f 3d4b d7be cae7 5abe 94f1 303e
00000020: ccf2 693e b5af 4e3d 4523 b5bd dff6 083f

decoder.2.weight f4 [22, 12]
0.06635617 -0.23717146 -0.3628141 -0.24436727 -0.98969775 -0.19233707 -0.1887081 -0.093411155
0.4654038 -0.6421277 0.8158438 0.6385935 0.08774147 -0.35563758 -0.29379576 -0.12194518
0.84317946 0.13611925 -0.036493592 -0.14809163 0.5100545 -0.503903 0.59037393 0.2012788
-0.00082980824 -0.38268682 -0.10821891 -0.4510184 0.18331274 -0.007504734 0.22533965 0.5829225
-0.07388561 0.24193664 -0.06639126 0.43697816 -0.25019795 -0.27607632 -0.043427814 -0.58895564
0.010324517 0.076797575 0.06119366 0.48231366 0.36383557 0.16312586 -0.14230795 0.12988795
0.10517381 0.11335579 -0.27565497 0.031056317 0.3240182 -0.23987181 -0.1576765 0.17269251
0.09301032 -0.049878955 0.008608093 0.032363787 -0.0009983898 0.008699853 0.243623 -0.012947296
0.4462696 -0.09218379 0.060581148 -0.06562673 -0.03796392 -0.019145275 0.10204647 -0.08768853
-0.22107615 -0.045147263 -0.11605981 0.08675108 -0.022970315 0.086344324 0.09934977 0.07923699
-0.026844602 -0.00069553114 -0.032182004 0.08072411 0.3071276 -0.030578697 -0.076420546 -0.04038661
0.3730944 0.049085945 0.21548109 0.17442183 0.19643864 0.010184338 -0.1622704 0.06477911
-0.07782816 -0.06051204 -0.20356558 0.069576204 -0.102229126 -0.18265764 -0.23999946 0.1045446
-0.19029059 0.027798261 0.096571185 0.052995563 0.2181164 -0.0016480429 0.1982849 0.24251597
0.4291208 0.11107757 0.0544958 -0.102581024 0.066764474 -0.06939891 -0.11414227 0.022630533
0.25902534 0.28601307 0.0037096972 -0.15115446 -0.0065142387 -0.19658013 0.23474817 -0.05649706
-0.07709203 -0.022499269 0.046018295 0.22213784 0.06496387 0.007699093 0.16932982 0.15175854
0.7112793 -0.06456412 0.13912344 -0.09187964 0.17456473 -0.10480715 -0.18681872 0.28137022
0.080888376 -0.038237106 0.28362656 0.109552935 0.17681958 0.015450709 -0.24832198 -0.040338397
-0.09114688 0.056423705 -0.104042664 -0.059413083 -0.22577484 0.15748732 -0.08051659 -0.05070722
0.024901284 0.2407703 -0.08587012 0.003980695 0.15666966 -0.03340866 -0.1153895 0.09003087
-0.21736325 -0.05611911 0.18792018 -0.03366314 0.2607144 -0.16812184 -0.003982726 -0.04583589
-0.0053992993 -0.017622447 0.17489217 -0.268986 0.048393976 0.07588 -0.085550115 0.012953328
-0.05766544 0.20146614 0.033432852 0.013965838 0.17456901 -0.035114203 -0.14509737 0.07164023
-0.20764844 0.0023757108 0.12698872 0.39682356 -0.5796921 0.18367313 -0.17237484 0.22534922
0.38985515 -0.4273879 0.17821833 0.1028182 -0.19401325 0.116853796 0.49267834 0.16139176
-0.25616005 -0.23969594 -0.16148692 0.35897925 -0.009605795 -0.67632914 0.3566105 -0.19349472
0.123382755 0.010698121 0.067901716 0.30473697 0.52189016 -0.07889741 -0.11852108 0.11243348
0.032463923 -0.19674623 0.12449929 0.18762839 -0.2325906 0.4337799 0.35916862 -0.0649961
0.3665845 0.09415289 -0.059311073 -0.16165891 0.056838173 -0.18187523 0.059927236 0.39070857
0.055517815 0.14522012 0.29804415 0.061303105 -0.6786179 -0.046688646 0.23413095 -0.6608896
0.16013514 0.5431355 0.25316873 0.107295014 0.05011259 0.18999498 0.06919726 0.19641018
00000000: bee5 873d 13dd 72be c5c2 b9be 6a3b 7abe
00000010: d55c 7dbf 02f4 44be b23c 41be 594e bfbd
00000020: 6849 ee3e 7b62 24bf 24db 503f dd7a 233f
00000030: cdb1 b33d 2116 b6be 666c 96be 65be f9bd
00000040: 9cda 573f d862 0b3e 4e7a 15bd 55a5 17be
00000050: ef92 023f c9ff 00bf bf22 173f 081c 4e3e
00000060: 7d87 59ba 87ef c3be e0a1 ddbd e2eb e6be
00000070: 56b6 3b3e 46ea f5bb 70bf 663e 693a 153f
00000080: 5751 97bd 3dbe 773e 24f8 87bd 9abb df3e
00000090: f219 80be e059 8dbe 5de1 31bd ccc5 16bf
000000a0: 2a28 293c 0c48 9d3d 34a6 7a3d d1f1 f63e
000000b0: a848 ba3e 770a 273e 2db9 11be 5901 053e
000000c0: 5e65 d73d 1527 e83d a622 8dbe d169 fe3c
000000d0: b7e5 a53e f5a0 75be f375 21be 4ed6 303e
000000e0: 327c be3d e04d 4cbd f508 0d3c e48f 043d
000000f0: 67dc 82ba d489 0e3c 4f78 793e e520 54bc
00000100: 737d e43e dbca bcbd f023 783d 4f67 86bd
00000110: 0e80 1bbd 8dd6 9cbc bdfd d03d 0b96 b3bd
00000120: c961 62be 56ec 38bd c4b0 edbd 8daa b13d
00000130: 3e2c bcbc 4bd5 b03d e477 cb3d 0147 a23d
00000140: 36e9 dbbc 4e54 36ba 47d1 03bd af52 a53d
00000150: d43f 9d3e 2d80 fabc 6082 9cbd 6e6c 25bd
00000160: 3b06 bf3e 580e 493d 13a7 5c3e a39b 323e
00000170: 3627 493e 36dc 263c 362a 26be e9aa 843d
00000180: 5f64 9fbd 79db 77bd 7f73 50be f87d 8e3d
00000190: 815d d1bd 9b0a 3bbe 6bc2 75be 7b1b d63d
000001a0: 89db 42be 2eb9 e33c 1dc7 c53d e011 593d
000001b0: e859 5f3e 2503 d8ba 320b 4b3e 1b56 783e
000001c0: b9b5 db3e a37c e33d fd36 5f3d 0016 d2bd
000001d0: d0bb 883d 0421 8ebd 6cc3 e9bd ab63 b93c
000001e0: f89e 843e 4e70 923e 641e 733b 3cc8 1abe
000001f0: 6575 d5bb 4d4c 49be d361 703e 7669 67bd
00000200: 6de2 9dbd 6350 b8bc ae7d 3c3d 1a78 633e
00000210: c70b 853d ac48 fc3b cc64 2d3e 9766 1b3e
00000220: 6616 363f 313a 84bd 6076 0e3e 652b bcbd
00000230: 19c1 323e 22a5 d6bd 684d 3fbe c20f 903e
00000240: cea8 a53d 839e 1cbd 8037 913e 4a5d e03d
00000250: 3110 353e f824 7d3c 1e48 7ebe e039 25bd
00000260: 37ab babd 8b1c 673d 5214 d5bd 225b 73bd
00000270: 8531 67be 5b44 213e e2e5 a4bd 60b2 4fbd
00000280: c7fd cb3c 7d8c 763e acdc afbd 7d70 823b
00000290: 036e 203e 85d7 08bd 5551 ecbd 1b62 b83d
000002a0: 7994 5ebe 27dd 65bd 266e 403e 5ce2 09bd
000002b0: 5c7c 853e 2228 2cbe 8781 82bb 6abe 3bbd
000002c0: 9bec b0bb f35c 90bc ef16 333e 88b8 89be
000002d0: c338 463d f966 9b3d e634 afbd 323a 543c
000002e0: 9932 6cbd 244d 4e3e e3f0 083d f8d0 643c
000002f0: 38c2 323e e9d3 0fbd 6894 14be 1db8 923d
00000300: cba1 54be d0b1 1b3b 5509 023e 752c cb3e
00000310: b466 14bf cf14 3c3e 0883 30be f2c1 663e
00000320: 189b c73e 96d2 dabe de7e 363e 5992 d23d
00000330: 69ab 46be 0b51 ef3d 5640 fc3e e243 253e
00000340: 6927 83be da72 75be d45c 25be 21cc b73e
00000350: a061 1dbc e823 2dbf a795 b63e 7b23 46be
00000360: 19b0 fc3d 2c47 2f3c 0e10 8b3d 7c06 9c3e
00000370: 989a 053f f794 a1bd 2ebb f2bd 8643 e63d
00000380: e4f8 043d d877 49be 7cf9 fe3d a821 403e
00000390: 3b2c 6ebe 6618 de3e f3e4 b73e ad1c 85bd
000003a0: f7b0 bb3e 3bd3 c03d 2bf0 72bd ea89 25be
000003b0: 25cf 683d 803d 3abe 4376 753d f40a c83e
000003c0: a666 633d 95b4 143e 3e99 983e f718 7b3d
000003d0: e7b9 2dbf 983c 3fbd 06c0 6f3e 1030 29bf
000003e0: 77fa 233e ee0a 0b3f 559f 813e 7dbd db3d
000003f0: dc42 4d3d 0b8e 423e 4bb7 8d3d c01f 493e

decoder.2.bias f4 [22]
-0.41856545 -0.18114837 0.05372117 0.22221889 0.03490721 -0.053497706 0.010431964 0.045362473
0.28423607 -0.18019511 -0.06469084 -0.22770232 -0.034746803 0.25379583 0.24140632 0.20379853
0.37106183 0.14058502 0.29713783 0.35423967 0.28757724 -0.07689823
00000000: 364e d6be f57e 39be bb0a 5c3d 598d 633e
00000010: ddfa 0e3d 6920 5bbd d4ea 2a3c 00ce 393d
00000020: 6487 913e 1185 38be a27c 84bd cc2a 69be
00000030: aa52 0ebd 87f1 813e 3833 773e 90b0 503e
00000040: d1fb bd3e 85f5 0f3e 7322 983e e75e b53e
00000050: 533d 933e d27c 9dbd
